predictors/irisNN.onnx (onnx, 7496 bytes, 6 tensors)

StatefulPartitionedCall/model/dense_2/MatMul/ReadVariableOp:0 f4 [32, 3]
-0.2336298 -0.20286368 0.34811947 0.036257 -0.09898475 -0.29098973 -0.20706175 -0.37157783
-0.022967951 0.24719326 0.19726081 -0.40720895 -0.12274152 0.38301855 -0.31156936 0.16386668
0.18913585 -0.5135454 -0.22832644 0.245424 -0.1112313 0.20982799 -0.36255747 0.247543
-0.12243274 -0.040191293 -0.22729596 -0.016548723 -0.29866973 -0.34095988 -0.22380787 -0.21803287
0.27071354 -0.38956678 -0.3918968 -0.12545437 0.071665764 -0.17057545 -0.0020678546 -0.27719128
-0.1703914 -0.073550224 -0.2886367 -0.39964864 0.037057366 -0.23619325 0.24360406 -0.26755285
0.2922016 -0.46319142 0.3711052 0.24154337 0.26655373 -0.6439918 0.1826648 0.106786996
0.029092848 0.32518658 -0.38716888 0.34064776 -0.15327772 -0.16268957 -0.36863673 -0.005065169
-0.383783 0.24667405 -0.04549543 -0.3016352 -0.22369426 0.20799024 -0.41447783 0.38658658
-0.1835433 0.28399453 -0.47802848 0.17847636 -0.26997396 0.15767436 -0.46798402 0.21871324
0.230226 -0.34719864 -0.29643503 0.18938832 -0.21795548 0.40331802 -0.12127501 0.19087341
0.31255177 -0.057334065 0.34651336 0.10123882 -0.16762936 0.25294557 -0.29692662 0.13320658
00000000: a63c 6fbe 7fbb 4fbe b73c b23e 3882 143d
00000010: 84b8 cabd 9bfc 94be ff07 54be 733f bebe
00000020: 4927 bcbc 3b20 7d3e bdfe 493e b17d d0be
00000030: e85f fbbd 021b c43e 0586 9fbe abcc 273e
00000040: d4ac 413e b677 03bf 68ce 69be 6e50 7b3e
00000050: 3ccd e3bd 26dd 563e 22a1 b9be ea7b 7d3e
00000060: 04be fabd a09f 24bd 46c0 68be 3091 87bc
00000070: 3deb 98be 4b92 aebe e42d 65be 0244 5fbe
00000080: f79a 8a3e 4c75 c7be b3a6 c8be 1c77 00be
00000090: 80c5 923d 55ab 2ebe d884 07bb 04ec 8dbe
000000a0: 157b 2ebe 80a1 96bd 31c8 93be bf9e ccbe
000000b0: 77c9 173d a5dc 71be 5873 793e b0fc 88be
000000c0: 739b 953e 6d27 edbe 8001 be3e 2557 773e
000000d0: bb79 883e a6dc 24bf 7b0c 3b3e 24b3 da3d
000000e0: 2054 ee3c db7e a63e 003b c6be 6269 ae3e
000000f0: d6f4 1cbe 1898 26be f4bd bcbe b8f9 a5bb
00000100: 357f c4be 1f98 7c3e 6a59 3abd ee6f 9abe
00000110: 1c10 65be 65fb 543e 7036 d4be adee c53e
00000120: c6f2 3bbe bb67 913e 26c0 f4be 82c2 363e
00000130: 073a 8abe 6375 213e 9a9b efbe 5df6 5f3e
00000140: 5dc0 6b3e 05c4 b1be 55c6 97be 03ef 413e
00000150: b92f 5fbe b37f ce3e 085f f8bd 5274 433e
00000160: c906 a03e 20d7 6abd 336a b13e 4c56 cf3d
00000170: 08a7 2bbe 1582 813e c406 98be 4e67 083e

StatefulPartitionedCall/model/dense_2/BiasAdd/ReadVariableOp:0 f4 [3]
0.026379978 0.06540192 -0.06605163
00000000: d31a d83c 71f1 853d 1446 87bd

StatefulPartitionedCall/model/dense_1/MatMul/ReadVariableOp:0 f4 [32, 32]
-0.13620256 -0.26355073 0.13613302 0.23387465 0.08362284 0.047324907 -0.25598067 0.3022211
-0.032361567 0.0107857585 0.033937037 0.312483 -0.18263601 -0.018319756 0.12459102 0.10786304
0.011586017 -0.005014688 0.23199356 -0.27969337 0.027533948 0.048085805 -0.025890147 0.016756285
0.056800213 -0.1367992 -0.22253676 -0.26125133 -0.053082228 -0.24331646 -0.1275998 0.10612279
-0.07390481 0.101474464 0.19931957 -0.06361613 0.27129272 0.154968 0.024480283 0.2765617
0.054391652 -0.021644413 -0.07691462 0.2117534 0.27947822 0.25365517 -0.011519045 -0.2600076
0.15390912 0.03909257 -0.20049934 -0.1033119 -0.037007958 0.2865012 -0.123995125 -0.21385178
-0.10936889 0.06274313 0.2091637 -0.009396404 0.14109686 0.23889819 -0.14747864 -0.020830184
0.22014472 0.19750354 0.23343787 -0.25342768 0.28186592 0.15555891 0.03793332 -0.29332516
-0.20284885 -0.09838006 0.19254082 0.13012373 0.029590964 -0.29382193 -0.184269 0.18840528
0.21917763 0.2209849 -0.026319236 0.26338044 -0.20116073 0.21441218 -0.06532368 0.14277151
-0.078403756 0.011975229 0.08225387 -0.08222206 -0.018445909 -0.2606746 0.00057539344 -0.26250288
0.007910699 -0.10152623 -0.33060187 0.19360562 1.8343388e-05 0.13791718 0.28347442 0.027111292
-0.3004425 0.1842457 -0.08885153 -0.22609454 0.0563973 0.2832859 0.050982725 0.010853676
-0.20788646 0.5118836 -0.07224515 -0.27128816 0.18578586 -0.008703197 -0.24019675 -0.23962
0.37897265 -0.35476288 -0.30891544 -0.21061248 -0.07033932 0.050972223 -0.23824781 -0.119480625
-0.17797577 0.30184087 0.26338807 0.31517163 -0.0031904005 0.026894715 -0.1994774 -0.04244438
-0.2651707 0.06934726 -0.05418971 0.2166195 0.18646115 0.29952112 0.2719734 -0.18793267
-0.18141097 0.0019917637 0.073327094 0.1687085 0.26297924 -0.3136587 0.19160075 0.10095785
-0.20240352 0.23240481 -0.24617785 0.07904485 0.2795945 0.13068044 -0.20979747 0.22902408
0.25311056 -0.16235636 0.008827716 0.015619695 -0.30335492 0.009311497 -0.1128632 0.13137451
0.0032004118 0.28030214 -0.0063001513 0.22682336 0.28678533 0.025074512 -0.17615156 -0.060516015
-0.29250184 -0.19468865 0.16122603 -0.12979063 -0.13218205 0.23577729 0.051946342 -0.2506695
-0.2008185 0.28406367 0.12332097 -0.03252858 -0.022805214 0.14000398 -0.05030954 0.004333675
-0.039871037 -0.14636904 0.008842433 -0.10497103 -0.24955727 -0.2802289 -0.21780023 -0.0030080676
-0.18270737 -0.28315398 -0.04479012 0.12027861 0.34700343 0.062874794 0.1756128 -0.17224681
0.4364275 -0.11381886 -0.004011649 0.18145558 -0.20115992 0.3123315 -0.13469166 0.4027656
-0.28141558 0.455571 0.08536601 0.12181809 0.11570066 -0.1770572 -0.030819058 0.043286353
-0.1397587 -0.12512918 -0.23292899 -0.05675079 -0.013292223 -0.20668897 -0.07008478 -0.09354968
-0.2538973 0.18249983 -0.15791962 0.12984464 0.21217743 0.16427702 0.21498206 0.23215875
-0.2547495 -0.17916356 0.28738818 0.082797796 0.26289943 -0.24948011 -0.054395646 -0.094185814
-0.27041665 -0.21394324 0.12260038 -0.11628422 0.11730325 -0.09660724 -0.27907845 -0.2871545
00000000: af78 0bbe 1ff0 86be 7466 0b3e d67c 6f3e
00000010: 7442 ab3d c3d7 413d e60f 83be b9bc 9a3e
00000020: 908d 04bd c0b6 303c 9001 0b3d c6fd 9f3e
00000030: ef04 3bbe 5013 96bc 9429 ff3d 4ce7 dc3d
00000040: 47d3 3d3c 4052 a4bb b88f 6d3e f833 8fbe
00000050: e08e e13c 9ff5 443d 9317 d4bc 7a44 893c
00000060: 57a7 683d 1715 0cbe ade0 63be bcc2 85be
00000070: c06c 59bd f327 79be 86a9 02be e856 d93d
00000080: 685b 97bd d8d1 cf3d 6e1a 4c3e 2c49 82bd
00000090: e1e6 8a3e eeaf 1e3e e08a c83c 7f99 8d3e
000000a0: c8c9 5e3d a04f b1bc 6a85 9dbd e2d5 583e
000000b0: c517 8f3e 17df 813e 60ba 3cbc b71f 85be
000000c0: 5a9a 1d3e 881f 203d b34f 4dbe 3095 d3bd
000000d0: a895 17bd 49b0 923e 28f1 fdbd f6fb 5abe
000000e0: ccfc dfbd 787f 803d 022f 563e 60f3 19bc
000000f0: b27b 103e baa1 743e a404 17be 10a4 aabc
00000100: 9e6d 613e 5e3e 4a3e 560a 6f3e 46c1 81be
00000110: bb50 903e d64a 1f3e f85f 1b3d b72e 96be
00000120: 9cb7 4fbe 7c7b c9bd 6c29 453e 283f 053e
00000130: c068 f23c d46f 96be 03b1 3cbe 50ed 403e
00000140: 1a70 603e de49 623e 709b d7bc cdd9 863e
00000150: 14fd 4dbe de8e 5b3e 6cc8 85bd b232 123e
00000160: 2692 a0bd c033 443c b874 a83d 0a64 a8bd
00000170: e01b 97bc 2477 85be 00d6 163a c766 86be
00000180: e09b 013c fcec cfbd a644 a9be 8d40 463e
00000190: 20e0 9937 293a 0d3e 8f23 913e 8018 de3c
000001a0: 99d3 99be e8aa 3c3e caf7 b5bd 5485 67be
000001b0: db00 673d d90a 913e 43d3 503d 9ed3 313c
000001c0: 30e0 54be ce0a 033f 44f5 93bd 48e6 8abe
000001d0: a63e 3e3e db97 0ebc 23f6 75be f25e 75be
000001e0: b408 c23e 7ba3 b5be 2a2a 9ebe ccaa 57be
000001f0: 100e 90bd 40c8 503d 3cf7 73be 42b2 f4bd
00000200: 483f 36be e38a 9a3e cdda 863e 2d5e a13e
00000210: 0a16 51bb 4e52 dc3c ce43 4cbe 28da 2dbd
00000220: 74c4 87be f005 8e3d 08f6 5dbd 81d1 5d3e
00000230: acef 3e3e d55a 993e 1940 8b3e 6c71 40be
00000240: ccc3 39be 4088 023b 842c 963d ecc1 2c3e
00000250: 37a5 863e e097 a0be fd32 443e fdc2 ce3d
00000260: de42 4fbe 87fb 6d3e 0c16 7cbe 44e2 a13d
00000270: 0327 8f3e 18d1 053e 26d5 56be 4a85 6a3e
00000280: b597 813e bf40 26be 20a2 103c c0e9 7f3c
00000290: 5651 9bbe 408f 183c d224 e7bd 0a87 063e
000002a0: 00be 513b c383 8f3e 8071 cebb 6244 683e
000002b0: 87d5 923e 1069 cd3c 1361 34be a4df 77bd
000002c0: cdc2 95be 765c 47be 7018 253e d6e7 04be
000002d0: bb5a 07be 9a6f 713e b0c5 543d c157 80be
000002e0: 5da3 4dbe cb70 913e b48f fc3d b03c 05bd
000002f0: 00d2 babc 345d 0f3e 6011 4ebd 8001 8e3b
00000300: d04f 23bd c4e1 15be dadf 103c 0dfb d6bd
00000310: f18b 7fbe 2a7a 8fbe 0607 5fbe 0023 45bb
00000320: a417 3bbe 8ff9 90be d875 37bd a254 f63d
00000330: 6faa b13e 80c4 803d d8d3 333e 7861 30be
00000340: 6d73 df3e dd19 e9bd 2774 83bb 7ecf 393e
00000350: defc 4dbe eae9 9f3e 9cec 09be 4b37 ce3e
00000360: b415 90be 9a40 e93e 60d4 ae3d c37b f93d
00000370: 78f4 ec3d 7c4e 35be 4078 fcbc 084d 313d
00000380: e81c 0fbe dd21 00be f084 6ebe 8473 68bd
00000390: a0c7 59bc 46a6 53be 9c88 8fbd fa96 bfbd
000003a0: d4fe 81be 3ce1 3a3e aeb5 21be fef5 043e
000003b0: 0a45 593e 3c38 283e 4224 5c3e 06bb 6d3e
000003c0: 876e 82be a776 37be 8b24 933e e491 a93d
000003d0: c19a 863e b777 7fbe f8cd 5ebd 7ee4 c0bd
000003e0: 0d74 8abe f013 5bbe e815 fb3d 6c26 eebd
000003f0: b03c f03d 04da c5bd 5fe3 8ebe ea05 93be

StatefulPartitionedCall/model/dense_1/BiasAdd/ReadVariableOp:0 f4 [32]
0.0 0.0 0.0036749505 0.062165808 0.07940892 0.068125784 0.0 0.0
0.0 0.0 0.0 -0.06296945 -0.0031079235 0.0 -0.0101385405 0.06611217
-0.0060641924 0.09918279 -0.008313835 -0.0014133595 0.0 -0.07685876 -0.010807458 0.030879073
0.111088745 0.015120953 -0.037994582 -0.060029663 0.0 0.0 0.0 0.0
00000000: 0000 0000 0000 0000 70d7 703b 93a1 7e3d
00000010: 25a1 a23d 8885 8b3d 0000 0000 0000 0000
00000020: 0000 0000 0000 0000 0000 0000 21f6 80bd
00000030: 4eae 4bbb 0000 0000 1f1c 26bc d165 873d
00000040: 22b6 c6bb 5920 cb3d c036 08bc 7a40 b9ba
00000050: 0000 0000 2068 9dbd c411 31bc 1cf6 fc3c
00000060: 7f82 e33d e0bd 773c 35a0 1bbd aae1 75bd
00000070: 0000 0000 0000 0000 0000 0000 0000 0000

StatefulPartitionedCall/model/dense/MatMul/ReadVariableOp:0 f4 [4, 32]
-0.051852234 -0.3135475 -0.08900756 0.2550938 0.10137338 -0.047842294 -0.119236715 -0.35852134
-0.35683444 0.40313855 0.221779 -0.39217302 0.25109494 0.016456474 -0.21462552 0.020470977
-0.36632907 0.16539688 0.041594595 -0.18508689 -0.24325982 -0.098647594 -0.056310065 0.08600294
0.34610733 0.23304132 0.080952704 0.15191822 -0.31016698 -0.39819068 -0.17714755 0.253408
-0.12330966 0.08021644 -0.27267402 0.25018713 -0.030003855 0.039846778 -0.08714615 0.23871356
-0.083746165 0.4482385 0.08262725 0.26450127 0.16764937 0.18378249 -0.22060718 0.07796988
0.00565842 -0.32445702 -0.068066716 0.018167973 0.3781044 -0.2538514 0.39518028 0.4023151
-0.35078475 -0.1633461 0.2589481 -0.14399679 -0.3977092 -0.26149845 -0.2740629 0.18869635
0.13049242 0.0139319 0.044209182 -0.242215 -0.35086682 -0.29160696 0.5241632 0.15181184
-0.018317759 -0.020354178 -0.24113183 -0.29917526 -0.2571369 0.29514864 -0.26356018 -0.38181347
0.3420522 0.27687806 -0.3476654 -0.20077372 -0.34811565 0.12108374 -0.07547504 0.1314875
-0.046547133 0.11192532 0.2449699 -0.27037212 -0.25554618 0.28848767 -0.2834823 -0.099684946
-0.10728006 0.2528221 0.13604987 -0.5024696 -0.052232474 -0.1922643 0.2917779 0.03576234
-0.16290526 -0.5042861 -0.121819325 0.14839566 0.13100629 -0.3029786 0.2913494 -0.07345396
0.089666836 -0.0138123995 0.32614446 -0.18346073 -0.31544337 -0.15670946 -0.17811045 0.24645591
0.5039697 -0.16005465 0.33086896 -0.17706786 0.046414882 0.39511698 -0.11127737 0.27494577
00000000: 0263 54bd 4c89 a0be 9849 b6bd a89b 823e
00000010: d99c cf3d 48f6 43bd 6132 f4bd 1c90 b7be
00000020: 01b3 b6be 2d68 ce3e 091a 633e e7ca c8be
00000030: 848f 803e bacf 863c cbc6 5bbe c0b2 a73c
00000040: 7c8f bbbe cd5d 293e 185f 2a3d 6b87 3dbe
00000050: 1a19 79be c007 cabd 62a5 66bd 4f22 b03d
00000060: fb34 b13e 62a2 6e3e 88ca a53d 7390 1b3e
00000070: 35ce 9ebe a6df cbbe 2b66 35be b2be 813e
00000080: c689 fcbd 8448 a43d ee9b 8bbe 8718 803e
00000090: a5ca f5bc 6036 233d ae79 b2bd 5471 743e
000000a0: 1c83 abbd 847f e53e 7a38 a93d b66c 873e
000000b0: 47ac 2b3e 7a31 3c3e d9e6 61be acae 9f3d
000000c0: 446a b93b 3b1f a6be 9066 8bbd 00d5 943c
000000d0: e696 c13e d0f8 81be 1255 ca3e 3ffc cd3e
000000e0: 0f9a b3be 3344 27be d894 843e e573 13be
000000f0: 8aa0 cbbe 20e3 85be f951 8cbe 9e39 413e
00000100: ce9f 053e a042 643c b014 353d 3507 78be
00000110: d1a4 b3be 824d 95be 8f2f 063f 9074 1b3e
00000120: 200f 96bc cebd a6bc 43eb 76be 802d 99be
00000130: 73a7 83be b91d 973e 5cf1 86be 0e7d c3be
00000140: 7721 af3e f6c2 8d3e 3301 b2be a097 4dbe
00000150: 373c b2be c0fa f73d a892 9abd a9a4 063e
00000160: 35a8 3ebd 1a39 e53d 64d9 7a3e 376e 8abe
00000170: f3d6 82be a8b4 933e 9824 91be 9f27 ccbd
00000180: a6b5 dbbd e671 813e a850 0b3e d9a1 00bf
00000190: b8f1 55bd efe0 44be ea63 953e 887b 123d
000001a0: a3d0 26be e518 01bf 697c f9bd 08f5 173e
000001b0: 8326 063e 0320 9bbe c02b 953e 086f 96bd
000001c0: 3fa3 b73d 674d 62bc 68fc a63e 21dd 3bbe
000001d0: cb81 a1be 7278 20be 9662 36be f05e 7c3e
000001e0: 2904 013f 5ee5 23be a867 a93e 4751 35be
000001f0: 881d 3e3d c64c ca3e 64e5 e3bd b1c5 8c3e

StatefulPartitionedCall/model/dense/BiasAdd/ReadVariableOp:0 f4 [32]
-0.01724495 0.0 0.0 0.15758942 -0.03313574 0.0 0.06874382 0.0
0.0 0.06908382 0.09409543 0.0 0.07018392 -0.035663806 0.0 0.0
-0.033170898 -0.06714867 0.0 0.0 0.0 0.0 0.09595356 0.019561747
-0.040382557 -0.022125248 -0.03990003 -0.007820748 0.0 0.0 0.0 0.107929274
00000000: 4845 8dbc 0000 0000 0000 0000 1f5f 213e
00000010: 57b9 07bd 0000 0000 8fc9 8c3d 0000 0000
00000020: 0000 0000 d17b 8d3d 1bb5 c03d 0000 0000
00000030: 96bc 8f3d 3614 12bd 0000 0000 0000 0000
00000040: 35de 07bd 3e85 89bd 0000 0000 0000 0000
00000050: 0000 0000 0000 0000 4d83 c43d f53f a03c
00000060: 2e68 25bd 0240 b5bc 376e 23bd 9822 00bc
00000070: 0000 0000 0000 0000 0000 0000 060a dd3d
